…
e(units=128,activation='relu'),\n","                           tf.keras.layers.Dense(units=10,activation='softmax')\n","])\n","\n","model.compile(optimizer=tf.keras.optimizers.Adam(),loss='sparse_categorical_crossentropy',metrics=['accuracy'])\n","\n","model.summary()"],"execution_count":0,"outputs":[{"output_type":"stream","text":["Model: \"sequential\"\n","_________________________________________________________________\n","Layer (type)                 Output Shape              Param #   \n","=================================================================\n","conv2d (Conv2D)              (None, 26, 26, 16)        160       \n","_________________________________________________________________\n","conv2d_1 (Conv2D)            (None, 24, 24, 32)        4640      \n","_________________________________________________________________\n","conv2d_2 (Conv2D)            (None, 22, 22, 64)        18496     \n","_________________________________________________________________\n","flatten (Flatten)            (None, 30976)             0         \n","_________________________________________________________________\n","dense (Dense)                (None, 128)               3965056   \n","_________________________________________________________________\n","dense_1 (Dense)              (None, 10)                1290      \n","=================================================================\n","Total params: 3,989,642\n","Trainable params: 3,989,642\n","Non-trainable params: 0\n","_________________________________________________________________\n"],"name":"stdout"}]},{"cell_type":"code","metadata":{"id":"w4kXNSvlho0r","colab_type":"code","outputId":"10347bf2-20c6-4f30-91e7-b42785fff5e3","executionInfo":{"st
…
units=128,activation='relu'),\n","                           tf.keras.layers.Dense(units=10,activation='softmax')\n","])\n","\n","model.compile(optimizer=tf.keras.optimizers.Adam(),loss='sparse_categorical_crossentropy',metrics=['accuracy'])\n","\n","model.summary()"],"execution_count":0,"outputs":[{"output_type":"stream","text":["Model: \"sequential_2\"\n","_________________________________________________________________\n","Layer (type)                 Output Shape              Param #   \n","=================================================================\n","conv2d_7 (Conv2D)            (None, 26, 26, 32)        320       \n","_________________________________________________________________\n","max_pooling2d_2 (MaxPooling2 (None, 13, 13, 32)        0         \n","_________________________________________________________________\n","conv2d_8 (Conv2D)            (None, 11, 11, 64)        18496     \n","_________________________________________________________________\n","max_pooling2d_3 (MaxPooling2 (None, 5, 5, 64)          0         \n","_________________________________________________________________\n","conv2d_9 (Conv2D)            (None, 3, 3, 128)         73856     \n","_________________________________________________________________\n","flatten_2 (Flatten)          (None, 1152)              0         \n","_________________________________________________________________\n","dense_4 (Dense)              (None, 128)               147584    \n","_________________________________________________________________\n","dense_5 (Dense)              (None, 10)                1290      \n","=================================================================\n","Total params: 241,546\n","Trainable params: 241,546\n","Non-trainable params: 0\n","_________________________________________________________________\n"],"name":"stdout"}]},{"cell_type":"code","metadata":{"id":"aNWD6sLrnlkl","colab_type":"code","outputId":"a0e83ced-3d2e-447a-b214-7c1216fc5ab4","executionInfo":{"status
…
ras.layers.Dropout(rate=0.5),\n","                           tf.keras.layers.Dense(units=10,activation='softmax')\n","])\n","\n","model.compile(optimizer=tf.keras.optimizers.Adam(),loss='sparse_categorical_crossentropy',metrics=['accuracy'])\n","\n","model.summary()"],"execution_count":0,"outputs":[{"output_type":"stream","text":["Model: \"sequential_3\"\n","_________________________________________________________________\n","Layer (type)                 Output Shape              Param #   \n","=================================================================\n","conv2d_10 (Conv2D)           (None, 28, 28, 32)        320       \n","_________________________________________________________________\n","conv2d_11 (Conv2D)           (None, 28, 28, 64)        18496     \n","_________________________________________________________________\n","max_pooling2d_4 (MaxPooling2 (None, 14, 14, 64)        0         \n","_________________________________________________________________\n","dropout (Dropout)            (None, 14, 14, 64)        0         \n","_________________________________________________________________\n","conv2d_12 (Conv2D)           (None, 14, 14, 128)       73856     \n","_________________________________________________________________\n","conv2d_13 (Conv2D)           (None, 12, 12, 256)       295168    \n","_________________________________________________________________\n","max_pooling2d_5 (MaxPooling2 (None, 6, 6, 256)         0         \n","_________________________________________________________________\n","dropout_1 (Dropout)          (None, 6, 6, 256)         0         \n","_________________________________________________________________\n","flatten_3 (Flatten)          (None, 9216)              0         \n","_________________________________________________________________\n","dense_6 (Dense)              (None, 512)               4719104   \n","_________________________________________________________________\n","dropout_2 (Dropout)          (None, 512)               0         \n","_________________________________________________________________\n","dense_7 (Dense)              (None, 256)               131328    \n","_________________________________________________________________\n","dropout_3 (Dropout)          (None, 256)               0         \n","_________________________________________________________________\n","dense_8 (Dense)              (None, 10)                2570      \n","=================================================================\n","Total params: 5,240,842\n","Trainable params: 5,240,842\n","Non-trainable params: 0\n","_________________________________________________________________\n"],"name":"stdout"}]},{"cell_type":"code","metadata":{"id":"9DpB0avGrBJ8","colab_type":"code","outputId":"8822dd92-7948-4632-85e4-ec3ce13b81dd","executionInfo":{"st
…
